…
=1)(model_) return model_ . Input_Sample = Input(shape=(HEIGHT, WIDTH,1)) Output_ = InstantiateModel(Input_Sample) Model_Colourization = Model(inputs=Input_Sample, outputs=Output_) . LEARNING_RATE = 0.001 Model_Colourization.compile(optimizer=Adam(lr=LEARNING_RATE), loss=&#39;mean_squared_error&#39;) Model_Colourization.summary() . __________________________________________________________________________________________________ Layer (type) Output Shape Param # Connected to ================================================================================================== input_1 (InputLayer) (None, 224, 224, 1) 0 __________________________________________________________________________________________________ conv2d_1 (Conv2D) (None, 224, 224, 16) 160 input_1[0][0] __________________________________________________________________________________________________ leaky_re_lu_1 (LeakyReLU) (None, 224, 224, 16) 0 conv2d_1[0][0] __________________________________________________________________________________________________ conv2d_2 (Conv2D) (None, 224, 224, 32) 4640 leaky_re_lu_1[0][0] __________________________________________________________________________________________________ leaky_re_lu_2 (LeakyReLU) (None, 224, 224, 32) 0 conv2d_2[0][0] __________________________________________________________________________________________________ batch_normalization_1 (BatchNor (None, 224, 224, 32) 128 leaky_re_lu_2[0][0] __________________________________________________________________________________________________ max_pooling2d_1 (MaxPooling2D) (None, 112, 112, 32) 0 batch_normalization_1[0][0] __________________________________________________________________________________________________ conv2d_3 (Conv2D) (None, 112, 112, 64) 18496 max_pooling2d_1[0][0] __________________________________________________________________________________________________ leaky_re_lu_3 (LeakyReLU) (None, 112, 112, 64) 0 conv2d_3[0][0] __________________________________________________________________________________________________ batch_normalization_2 (BatchNor (None, 112, 112, 64) 256 leaky_re_lu_3[0][0] __________________________________________________________________________________________________ max_pooling2d_2 (MaxPooling2D) (None, 56, 56, 64) 0 batch_normalization_2[0][0] __________________________________________________________________________________________________ conv2d_4 (Conv2D) (None, 56, 56, 128) 73856 max_pooling2d_2[0][0] __________________________________________________________________________________________________ leaky_re_lu_4 (LeakyReLU) (None, 56, 56, 128) 0 conv2d_4[0][0] __________________________________________________________________________________________________ batch_normalization_3 (BatchNor (None, 56, 56, 128) 512 leaky_re_lu_4[0][0] __________________________________________________________________________________________________ conv2d_5 (Conv2D) (None, 56, 56, 256) 295168 batch_normalization_3[0][0] __________________________________________________________________________________________________ leaky_re_lu_5 (LeakyReLU) (None, 56, 56, 256) 0 conv2d_5[0][0] __________________________________________________________________________________________________ batch_normalization_4 (BatchNor (None, 56, 56, 256) 1024 leaky_re_lu_5[0][0] __________________________________________________________________________________________________ up_sampling2d_1 (UpSampling2D) (None, 112, 112, 256 0 batch_normalization_4[0][0] __________________________________________________________________________________________________ conv2d_6 (Conv2D) (None, 112, 112, 128 295040 up_sampling2d_1[0][0] _______________________________
…
_____________________________________________________________ leaky_re_lu_6 (LeakyReLU) (None, 112, 112, 128 0 conv2d_6[0][0] __________________________________________________________________________________________________ batch_normalization_5 (BatchNor (None, 112, 112, 128 512 leaky_re_lu_6[0][0] __________________________________________________________________________________________________ up_sampling2d_2 (UpSampling2D) (None, 224, 224, 128 0 batch_normalization_5[0][0] __________________________________________________________________________________________________ conv2d_7 (Conv2D) (None, 224, 224, 64) 73792 up_sampling2d_2[0][0] __________________________________________________________________________________________________ leaky_re_lu_7 (LeakyReLU) (None, 224, 224, 64) 0 conv2d_7[0][0] __________________________________________________________________________________________________ concatenate_1 (Concatenate) (None, 224, 224, 65) 0 leaky_re_lu_7[0][0] input_1[0][0] __________________________________________________________________________________________________ conv2d_8 (Conv2D) (None, 224, 224, 64) 37504 concatenate_1[0][0] __________________________________________________________________________________________________ leaky_re_lu_8 (LeakyReLU) (None, 224, 224, 64) 0 conv2d_8[0][0] __________________________________________________________________________________________________ batch_normalization_6 (BatchNor (None, 224, 224, 64) 256 leaky_re_lu_8[0][0] __________________________________________________________________________________________________ conv2d_9 (Conv2D) (None, 224, 224, 32) 18464 batch_normalization_6[0][0] __________________________________________________________________________________________________ leaky_re_lu_9 (LeakyReLU) (None, 224, 224, 32) 0 conv2d_9[0][0] __________________________________________________________________________________________________ conv2d_10 (Conv2D) (None, 224, 224, 2) 578 leaky_re_lu_9[0][0] ================================================================================================== Total params: 820,386 Trainable params: 819,042 Non-trainable params: 1,344 __________________________________________________________________________________________________ . def GenerateInputs(X_,y_): for i in range(len(X_)): X_input = X_[i].reshape(1,224,224,1) y_input = y_[i
…
